larflow/SpatialEmbed/trained_models/trained_model.pt (torch_old, 223386 bytes, 480 tensors)

exp_avg_sq f4 [9, 4, 4]
0	0x3795cc69	1.785737e-05
1	0x369dcfda	4.7031617e-06
2	0x36e5fd8c	6.8542486e-06
3	0x37d0c64c	2.4887871e-05
4	0x3903d46d	0.00012572268
5	0x36e5bf92	6.8470335e-06
6	0x373bc0aa	1.1190927e-05
7	0x38647b5d	5.4474327e-05
8	0x38f2a35a	0.00011569886
9	0x36bfed6f	5.7198845e-06
10	0x37b2adc9	2.1300179e-05
11	0x38ed18fb	0.000113056936
12	0x399f8604	0.00030426693
13	0x3852183d	5.0090475e-05
14	0x3822130b	3.8641545e-05
15	0x3964d952	0.00021824733
16	0x3773f359	1.45405875e-05
17	0x36c6af4f	5.9212684e-06
18	0x37126ba5	8.727341e-06
19	0x37cd79e6	2.4494668e-05
20	0x3858acc1	5.1659303e-05
21	0x36920b5c	4.3524615e-06
22	0x36b1428c	5.282758e-06
23	0x3837d5a2	4.382956e-05
24	0x389bb9de	7.4255964e-05
25	0x36b9960a	5.5308965e-06
26	0x37839813	1.5687232e-05
27	0x38fffaf4	0.00012206091
28	0x3950f5e2	0.00019928024
29	0x3769cd2f	1.3935655e-05
30	0x38135bd8	3.5133067e-05
31	0x3922f381	0.00015540236
32	0x37609e29	1.3388265e-05
33	0x36d8ea06	6.4645455e-06
34	0x37225132	9.674857e-06
35	0x3809b6a0	3.2833428e-05
36	0x37ecf73c	2.824852e-05
37	0x36846efd	3.9468273e-06
38	0x3680dc69	3.8403564e-06
39	0x37c6a43a	2.3679913e-05
40	0x389bf1c7	7.4360105e-05
41	0x36a82553	5.0111353e-06
42	0x379b3544	1.8502244e-05
43	0x38c21d0c	9.256051e-05
44	0x399cf944	0.00029940356
45	0x37ac472d	2.0537142e-05
46	0x38908543	6.891277e-05
47	0x3992cb41	0.00027998726
48	0x37c385e4	2.330816e-05
49	0x374572b7	1.1768824e-05
50	0x3709ca3b	8.212922e-06
51	0x381a941f	3.685441e-05
52	0x386b5bd9	5.6113906e-05
53	0x3717ff8b	9.0598e-06
54	0x3784a8b8	1.5814192e-05
55	0x3801a2de	3.090768e-05
56	0x38b6ef70	8.723035e-05
57	0x37496a85	1.2005335e-05
58	0x37b3bab1	2.1425398e-05
59	0x3899179b	7.3000054e-05
60	0x39e2bbbc	0.00043245952
61	0x38370f34	4.364476e-05
62	0x381d8329	3.755387e-05
63	0x395a03b9	0.00020791487
64	0x38146d85	3.5387948e-05
65	0x36f1d54c	7.2071907e-06
66	0x37500431	1.2398742e-05
67	0x381515bd	3.5544614e-05
68	0x38c324e8	9.305199e-05
69	0x37358021	1.0818273e-05
70	0x3793dded	1.7627108e-05
71	0x382bb27f	4.0935814e-05
72	0x39005ef0	0.00012242398
73	0x370f3088	8.534764e-06
74	0x380b1a0a	3.3164433e-05
75	0x39152739	0.00014224359
76	0x39c87f82	0.00038241973
77	0x37c34202	2.3276549e-05
78	0x382d4e45	4.131931e-05
79	0x3912d80b	0.00014004127
80	0x37b0f041	2.1092712e-05
81	0x36ff1729	7.6022884e-06
82	0x370bc4c4	8.330859e-06
83	0x37fcbbf7	3.0128269e-05
84	0x38c0bcd8	9.190448e-05
85	0x3683a2f1	3.923073e-06
86	0x37072001	8.0540785e-06
87	0x3826927a	3.97139e-05
88	0x38d20ff7	0.00010016554
89	0x36bc1f41	5.606475e-06
90	0x37f425ef	2.910473e-05
91	0x38c9bab9	9.619207e-05
92	0x39c33664	0.00037233823
93	0x37c07010	2.2940367e-05
94	0x383189ff	4.2328607e-05
95	0x391254c5	0.00013955224
96	0x37c37e19	2.330453e-05
97	0x37441613	1.168765e-05
98	0x372c6875	1.027632e-05
99	0x386300e4	5.4121847e-05
100	0x3826e2db	3.978876e-05
101	0x36f2eeef	7.2399775e-06
102	0x3746f4a5	1.185868e-05
103	0x37f97b94	2.9740659e-05
104	0x3881aed7	6.183766e-05
105	0x37728701	1.4455757e-05
106	0x375772f2	1.2841761e-05
107	0x384573f6	4.7076457e-05
108	0x3a08e566	0.00052221713
109	0x380a58cd	3.2984466e-05
110	0x38801428	6.10727e-05
111	0x3a017712	0.00049387023
112	0x37f6b641	2.9410354e-05
113	0x36f7ccc9	7.3850138e-06
114	0x3711a0da	8.680125e-06
115	0x37da6551	2.6034804e-05
116	0x386252c4	5.395968e-05
117	0x3785c57f	1.5946802e-05
118	0x376b2066	1.4014635e-05
119	0x37fd0d0f	3.0166031e-05
120	0x38f17f1f	0.00011515454
121	0x370d6bc2	8.429344e-06
122	0x378f9f64	1.712115e-05
123	0x386888fd	5.544069e-05
124	0x39d42fa7	0.00040471295
125	0x37e572a3	2.735231e-05
126	0x380a0a19	3.2911168e-05
127	0x399bc502	0.00029710686
128	0x37e21da6	2.6955106e-05
129	0x36bddb94	5.658201e-06
130	0x36d16f19	6.241619e-06
131	0x37adb3bc	2.0706902e-05
132	0x388b93df	6.65558e-05
133	0x36d3fea5	6.3179345e-06
134	0x3795e994	1.7870952e-05
135	0x38129773	3.495016e-05
136	0x38bcefd4	9.00921e-05
137	0x3705e1af	7.979964e-06
138	0x37c631f6	2.3626704e-05
139	0x383c50f2	4.489808e-05
140	0x3a08e3bd	0.0005221924
141	0x3810251f	3.4366847e-05
142	0x384c44eb	4.8701575e-05
143	0x39d19b69	0.00039979376

exp_avg f4 [9, 4, 4]
0	0x360a63cb	2.062169e-06
1	0x36237641	2.4357726e-06
2	0x3808b3d9	3.2592423e-05
3	0x39743912	0.00023290914
4	0x3a6afd37	0.00089641236
5	0xb8080247	-3.2427048e-05
6	0x395002b0	0.00019837427
7	0xb9568a68	-0.0002046019
8	0xbaaae7b8	-0.0013039028
9	0xb9533190	-0.00020140992
10	0xba11ee4f	-0.0005566822
11	0xbb00ab03	-0.001963318
12	0x38f71d40	0.00011783326
13	0x36766d8a	3.6720617e-06
14	0x3a17b3fb	0.0005787012
15	0x3a673dba	0.00088211487
16	0xb8b69fb6	-8.708185e-05
17	0xb7cef108	-2.4669353e-05
18	0x3816309d	3.580806e-05
19	0x3990a06b	0.0002758534
20	0x3af0aee4	0.0018362668
21	0x38513b8d	4.9884944e-05
22	0x39cacd45	0.0003868138
23	0xba00b154	-0.00049092364
24	0x388079eb	6.1262246e-05
25	0xb92e181c	-0.00016602915
26	0xb921bcb1	-0.0001542445
27	0xbb3bd791	-0.0028662423
28	0xb82bf22b	-4.0995114e-05
29	0xb8b64a32	-8.692256e-05
30	0x3a67f3ca	0.0008848278
31	0x3b35aab9	0.0027720167
32	0x3859e708	5.1951996e-05
33	0x3665a12c	3.4217474e-06
34	0x3894b89d	7.091577e-05
35	0x39aec1e2	0.0003333232
36	0x3aeedc6b	0.0018223649
37	0x391a3b3e	0.00014708654
38	0x39d0c402	0.0003981889
39	0xb99ddd2c	-0.0003011016
40	0xb9bff46f	-0.00036612476
41	0xb8a62022	-7.921482e-05
42	0x3917ef73	0.00014489684
43	0xbb2601b6	-0.002533061
44	0x39fa13ef	0.00047698568
45	0xb7cce8bc	-2.442707e-05
46	0x3a5f0f59	0.0008509062
47	0x3b74bd5e	0.0037344317
48	0x3932f21a	0.00017065593
49	0x37bce201	2.2516588e-05
50	0x38f2ee6b	0.00011583868
51	0x395c4eea	0.00021010233
52	0x3a3a6e76	0.0007111797
53	0x3928a893	0.00016084527
54	0xb7490502	-1.19817e-05
55	0x3a5c91d1	0.00084140623
56	0xba85bfd8	-0.0010204269
57	0x3807ce6e	3.237876e-05
58	0xb9d8ea6a	-0.00041373383
59	0x3a660d55	0.00087757903
60	0xbaa5c7ce	-0.0012648047
61	0xb864093a	-5.436803e-05
62	0x38a67716	7.937678e-05
63	0xba4481c6	-0.00074961444
64	0x39a1b8d0	0.0003084601
65	0x3887632d	6.4557746e-05
66	0x3912399d	0.00013945108
67	0x39ac3dcb	0.00032852436
68	0x3a5cbe01	0.0008420647
69	0x388c5c3d	6.692901e-05
70	0xb7a6a0cd	-1.986362e-05
71	0x3a1e7071	0.0006043977
72	0xb9c6a022	-0.0003788481
73	0xb8bef153	-9.104856e-05
74	0xba1d1bdf	-0.0005993228
75	0x39151009	0.00014215721
76	0xbaa44871	-0.0012533796
77	0xb714663f	-8.845293e-06
78	0x39e296e6	0.00043218507
79	0x3a723fa1	0.0009241049
80	0x388922a8	6.539124e-05
81	0x37b9e94f	2.2162361e-05
82	0x38810e55	6.153869e-05
83	0x39c126f5	0.00036840854
84	0x3a3af192	0.00071313337
85	0x3723f80e	9.773312e-06
86	0x3922c7f8	0.00015524018
87	0xb9684302	-0.00022150206
88	0xba345c5e	-0.0006880219
89	0xb9365f4f	-0.00017392378
90	0xb9967440	-0.00028696842
91	0xba2fdca7	-0.00067086
92	0xbb1998a2	-0.0023436924
93	0xb996ba92	-0.00028749235
94	0x398d3f6c	0.0002694087
95	0x3b2e5d69	0.002660597
96	0x394161f7	0.00018442409
97	0x389e0ed3	7.536788e-05
98	0x38f3137e	0.00011590774
99	0x3917e014	0.00014483958
100	0x3a228f8f	0.00062012015
101	0x38ba2644	8.876299e-05
102	0x3942d580	0.00018580817
103	0x3a5f5a39	0.0008520219
104	0x3a6d548a	0.000905343
105	0x38ae272e	8.304264e-05
106	0x398d0485	0.00026896983
107	0x3a938549	0.0011254932
108	0x3a914364	0.0011082706
109	0x39c58f1f	0.00037681402
110	0xb97f4574	-0.00024344568
111	0x3a950156	0.0011368196
112	0x3905fbca	0.00012777667
113	0x37db94c5	2.617611e-05
114	0x3885f9f3	6.388491e-05
115	0x38d87f28	0.00010323367
116	0x3a580e0a	0.0008241838
117	0x391e35ee	0.00015088145
118	0x38b902e6	8.822027e-05
119	0x3a932cab	0.0011228522
120	0x3a85edb4	0.0010217936
121	0x3966a4c1	0.00021995885
122	0x379f3b4e	1.8981893e-05
123	0x3ab5e804	0.001387835
124	0xbab9b0a9	-0.0014167029
125	0x3720033d	9.537497e-06
126	0xb99f79fa	-0.00030417723
127	0x3addcd89	0.0016922216
128	0x392ba718	0.00016370078
129	0xb6a70cea	-4.9784912e-06
130	0x37fd03fe	3.016181e-05
131	0x38bf32f2	9.117079e-05
132	0x3a303517	0.0006721778
133	0x38e34472	0.000108369524
134	0xb925a3ef	-0.00015796696
135	0x3a269452	0.0006354499
136	0x3a015948	0.00049342634
137	0x38f70405	0.000117786265
138	0xb9af32cc	-0.00033416448
139	0x3a49bc35	0.00076955865
140	0xbb51e963	-0.0032029978
141	0xb9fe4594	-0.00048498495
142	0xb7a49d67	-1.962362e-05
143	0x3b1563c0	0.0022795051

exp_avg_sq f4 [4]
0	0x3bc5dff3	0.0060386597
1	0x3b141e74	0.002260116
2	0x3d667028	0.056259304
3	0x3c958213	0.0182505

exp_avg f4 [4]
0	0x3b8f4c77	0.004373129
1	0xbb6658dc	-0.003514818
2	0x3ce3073e	0.027713414
3	0xbc8e9b8d	-0.017408157

exp_avg_sq f4 [9, 6, 6]
0	0x4743ce53	50126.324
1	0x4782f558	67050.69
2	0x494e1ac8	844204.5
3	0x4824b3f3	168655.8
4	0x47c34fa4	99999.28
5	0x47a1da1d	82868.23
6	0x48244687	168218.11
7	0x48cb1429	415905.28
8	0x48e843c6	475678.2
9	0x488defcc	290686.38
10	0x48487a85	205290.08
11	0x4895fa69	307155.28
12	0x49326aba	730795.6
13	0x48f66b2c	504665.38
14	0x49c200cf	1.5892739e+06
15	0x499d2a6c	1.2875015e+06
16	0x49ff5c99	2.0919231e+06
17	0x49992555	1.2545706e+06
18	0x47d5ab16	109398.17
19	0x4785af02	68446.016
20	0x4a2e32d6	2.8540695e+06
21	0x4a44a480	3.221792e+06
22	0x4768e15f	59617.37
23	0x47eb240c	120392.09
24	0x482a8359	174605.39
25	0x47bd71d7	96995.68
26	0x48aff940	360394.0
27	0x48548c44	217649.06
28	0x474a4db7	51789.715
29	0x48104e12	147768.28
30	0x47ea0d8b	119835.086
31	0x485b5f7f	224637.98
32	0x4ab1149f	5.8025755e+06
33	0x4aa2b292	5.331273e+06
34	0x47a2ce99	83357.195
35	0x48e14694	461364.62
36	0x48332bb8	183470.88
37	0x4778c508	63685.03
38	0x492faceb	719566.7
39	0x4822f74c	166877.19
40	0x49488155	821269.3
41	0x47a761d9	85699.695
42	0x4830fd91	181238.27
43	0x48b3b7d2	368062.56
44	0x48e11688	460980.25
45	0x48242728	168092.62
46	0x48a99b36	347353.7
47	0x48908aae	296021.44
48	0x493e97fe	780671.9
49	0x48aaa654	349490.62
50	0x49e8de49	1.9076571e+06
51	0x499aab31	1.2670461e+06
52	0x48775cfa	253299.9
53	0x49393bbb	758715.7
54	0x486c1f86	241790.1
55	0x479eb4ab	81257.336
56	0x49495ad7	824749.44
57	0x49b57aea	1.4866852e+06
58	0x48151521	152660.52
59	0x480151e8	132423.62
60	0x481597c3	153183.05
61	0x4815c1e6	153351.6
62	0x48801fae	262397.44
63	0x48b51879	370883.78
64	0x4790c2ff	74117.99
65	0x4830d562	181077.53
66	0x485c5299	225610.39
67	0x484447ba	200990.9
68	0x49ae94b7	1.4301669e+06
69	0x4a2be9ec	2.816635e+06
70	0x46c17954	24764.664
71	0x49053fa8	545786.5
72	0x488e8d70	291947.5
73	0x47aea4f3	89417.9
74	0x48722cef	247987.73
75	0x48940161	303115.03
76	0x4880fda5	264173.16
77	0x4917e90a	622224.6
78	0x489b032a	317465.3
79	0x49157200	612128.0
80	0x4952892b	862354.7
81	0x48a431f9	336271.78
82	0x489bc3ba	319005.8
83	0x48a65f8d	340732.4
84	0x49106c5a	591557.6
85	0x48b504db	370726.84
86	0x49fc1a3f	2.0652239e+06
87	0x493279c8	731036.5
88	0x47bb2202	95812.016
89	0x488de1f4	290575.62
90	0x4881cd5a	265834.8
91	0x47423f88	49727.53
92	0x48946094	303876.62
93	0x4907ef85	556792.3
94	0x47b80939	94226.445
95	0x48010f01	132156.02
96	0x4790f915	74226.164
97	0x486c35ae	241878.72
98	0x48a9c0a2	347653.06
99	0x4877bdf9	253687.89
100	0x479790a8	77601.31
101	0x48a606ac	340021.38
102	0x481907cb	156703.17
103	0x47f32727	124494.305
104	0x496d547f	972103.94
105	0x4a24468b	2.6914908e+06
106	0x47876a82	69333.016
107	0x48e8523b	475793.84
108	0x472f330e	44851.055
109	0x477e1816	65048.086
110	0x4923f6d9	671597.56
111	0x482c5aaf	176490.73
112	0x4756e018	55008.094
113	0x47abbdc2	87931.516
114	0x47f61180	125987.0
115	0x4913bdfd	605151.8
116	0x49ba2fc9	1.5252411e+06
117	0x49589fbd	887291.8
118	0x4858e0e6	222083.6
119	0x485641f8	219399.88
120	0x48d385cf	433198.47
121	0x48941a81	303316.03
122	0x49b0c2ad	1.4480216e+06
123	0x49629f39	928243.56
124	0x49fa12bc	2.0485995e+06
125	0x48e17530	461737.5
126	0x485e8777	227869.86
127	0x47393a43	47418.26
128	0x4a045540	2.168144e+06
129	0x4a8f6383	4.6985615e+06
130	0x47245a6a	42074.414
131	0x49309af5	723375.3
132	0x47c98881	103185.01
133	0x48d66ee0	439159.0
134	0x490a380c	566144.75
135	0x48873cb7	276965.72
136	0x4898be5b	312818.84
137	0x485ef21e	228296.47
138	0x492977aa	694138.6
139	0x490ce535	577107.3
140	0x4a7603bf	4.0307038e+06
141	0x4addcd65	7.2680185e+06
142	0x48b738de	375238.94
143	0x49b77855	1.5029866e+06
144	0x476d437a	60739.477
145	0x479a5c34	79032.41
146	0x49547d68	870358.5
147	0x48b28663	365619.1
148	0x48bafbad	382941.4
149	0x47de4bc8	113815.56
150	0x48be57a6	389821.2
151	0x490c5788	574840.5
152	0x4988f5f4	1.1219825e+06
153	0x49744cc7	1.00065244e+06
154	0x4861be0d	231160.2
155	0x481a45bf	157974.98
156	0x49216831	661123.06
157	0x4912931e	600369.9
158	0x49cdd146	1.6860568e+06
159	0x49a2f700	1.335008e+06
160	0x48b7684a	375618.3
161	0x499a508e	1.2641458e+06
162	0x47d0cdc7	106907.555
163	0x47e57b6b	117494.836
164	0x49f54888	2.009361e+06
165	0x4a36a202	2.9922565e+06
166	0x47daec75	112088.914
167	0x48787573	254421.8
168	0x4909a16b	563734.7
169	0x492e28bf	713355.94
170	0x4966052c	942162.75
171	0x48955b79	305883.78
172	0x48098b4f	140845.23
173	0x48c80924	409673.12
174	0x48afb51c	359848.88
175	0x496a6d0e	960208.9
176	0x4a6748d0	3.789364e+06
177	0x4aa2b209	5.3312045e+06
178	0x47dd52d7	113317.68
179	0x48fdc805	519744.16
180	0x4827dd47	171893.11
181	0x4759809c	55680.61
182	0x48a81071	344195.53
183	0x4887faba	278485.8
184	0x491852f1	623919.06
185	0x48748376	250381.84
186	0x488dc638	290353.75
187	0x491717ec	618878.75
188	0x498110c3	1.0573044e+06
189	0x496bd57c	965975.75
190	0x47a5be04	84860.03
191	0x4816028b	153610.17
192	0x489bc184	318988.12
193	0x48beed95	391020.66
194	0x49b1fdef	1.4581099e+06
195	0x4986aabd	1.1031916e+06
196	0x47e8d1e5	119203.79
197	0x48c3c3ae	400925.44
198	0x480ca662	144025.53
199	0x46fe56cd	32555.4
200	0x48e15289	461460.28
201	0x49fe133f	2.0813839e+06
202	0x47daf7ae	112111.36
203	0x4839827f	189961.98
204	0x47fdb880	129905.0
205	0x485c042b	225296.67
206	0x495a68aa	894602.6
207	0x48124417	149776.36
208	0x48096e25	140728.58
209	0x48865df3	275183.6
210	0x48c33bb3	399837.6
211	0x4839f0f4	190403.81
212	0x4997dfc3	1.2441524e+06
213	0x4a27dfcd	2.7504512e+06
214	0x4710f402	37108.008
215	0x48cb6072	416515.56
216	0x4742c6fa	49862.977
217	0x47ab6758	87758.69
218	0x48c361fc	400143.88
219	0x487ac76d	256797.7
220	0x47448ea9	50318.66
221	0x476296c4	58006.766
222	0x49281bcd	688572.8
223	0x484cbfce	209663.22
224	0x48b48872	369731.56
225	0x49affeb1	1.4417501e+06
226	0x46e15666	28843.2
227	0x48eb0b68	481371.25
228	0x48d978dd	445382.9
229	0x485c49cd	225575.2
230	0x499dcfcf	1.2927939e+06
231	0x491b315d	635669.8
232	0x4a02d1aa	2.1433385e+06
233	0x48b1fe5d	364530.9
234	0x48e0345c	459170.88
235	0x466099c4	14374.441
236	0x49acb309	1.4147531e+06
237	0x4a3bc96e	3.0766995e+06
238	0x4768701e	59504.117
239	0x48f341f2	498191.56
240	0x4890d3ad	296605.4
241	0x4822f563	166869.55
242	0x48c23750	397754.5
243	0x48f27996	496588.7
244	0x47e80045	118784.54
245	0x4882fc92	268260.56
246	0x49e90083	1.9087524e+06
247	0x48321812	182368.28
248	0x49f9c0b8	2.045975e+06
249	0x4b032720	8.595232e+06
250	0x472af4d4	43764.83
251	0x49df2c97	1.8282429e+06
252	0x479ff572	81898.89
253	0x479efc11	81400.13
254	0x48b9f83d	380865.9
255	0x4880c00e	263680.44

exp_avg f4 [9, 6, 6]
0	0x4062e206	3.5450454
1	0x400fdb83	2.247773
2	0xc2f3a3e1	-121.820076
3	0x41e2a20a	28.32912
4	0xc0d65891	-6.6983113
5	0x430e22b9	142.13564
6	0xc2059f9a	-33.40586
7	0xc0db195e	-6.8468466
8	0xc12e63d4	-10.899372
9	0xc0e5c731	-7.1805654
10	0xc131cd9d	-11.112699
11	0x43306845	176.4073
12	0x409ce04d	4.9023805
13	0x430281dc	130.50726
14	0xc40e8a1a	-570.15784
15	0x41b0882d	22.066492
16	0xc1b2dca0	-22.357727
17	0x43114a41	145.29005
18	0x41f8e0bb	31.109732
19	0x40a52127	5.160297
20	0x41d275bd	26.30749
21	0x4096b90e	4.7100897
22	0xc2041a89	-33.025913
23	0x4293991b	73.799034
24	0x43014ddb	129.30412
25	0xc26c771d	-59.11632
26	0x4304e9d5	132.9134
27	0x42048f6c	33.14006
28	0xc104d6f9	-8.302484
29	0x4314eef3	148.9334
30	0x418edec7	17.858778
31	0x426e9df7	59.654263
32	0xc32e6f56	-174.4349
33	0x418eeaa0	17.864563
34	0xc1be594f	-23.793608
35	0x43521dc5	210.11629
36	0x40269fc5	2.6035016
37	0xc09805dd	-4.7507157
38	0xc32bf8a1	-171.9712
39	0x41f05247	30.040174
40	0x3f66cb0e	0.90153587
41	0x42bb70d5	93.720375
42	0xc227768f	-41.86578
43	0x42324077	44.562954
44	0xc3531304	-211.07428
45	0x418201ca	16.250874
46	0x418a7887	17.308851
47	0x4340df04	192.87115
48	0xc2260425	-41.504047
49	0x429fd2c2	79.91164
50	0xc41de027	-631.5024
51	0x41a7c8c2	20.973026
52	0xc18f478f	-17.90994
53	0x43647806	228.46884
54	0x42051ac9	33.276157
55	0xc26f6de1	-59.857304
56	0x42cb2af8	101.58392
57	0xbfca3015	-1.5795923
58	0xc1fee25b	-31.860525
59	0x42bee4eb	95.447105
60	0x42215374	40.331497
61	0xc2931f1c	-73.56076
62	0x434c62c9	204.38588
63	0x422acbb8	42.698944
64	0x41defd5c	27.87371
65	0x4295ae5e	74.84056
66	0xc18df13b	-17.742788
67	0x41800596	16.002728
68	0xc2ed3493	-118.602684
69	0x3ffab648	1.9586878
70	0xc1beeb70	-23.86496
71	0x430af8ec	138.97235
72	0xc1e93289	-29.149675
73	0x41c05297	24.040327
74	0xc3530eb6	-211.05746
75	0x41d1ac44	26.209114
76	0x41934b19	18.411669
77	0x4196ad95	18.834757
78	0xc2822306	-65.068405
79	0x42a01629	80.04328
80	0xc3b7a32f	-367.27487
81	0x41a016fb	20.01122
82	0x41658676	14.345327
83	0x42957efe	74.74803
84	0xc2e303d4	-113.50748
85	0x42ae4ef4	87.154205
86	0xc423e447	-655.56683
87	0x41e847c0	29.035034
88	0xc193fa0f	-18.497099
89	0x42fbab3b	125.834435
90	0xc16d9ad4	-14.8503
91	0xc2499e16	-50.40438
92	0x42d9818c	108.75302
93	0x41136044	9.211002
94	0xc152d00c	-13.175793
95	0x42c90f95	100.53043
96	0xc243ab8d	-48.91753
97	0x41dba593	27.455847
98	0x41ad8acf	21.692778
99	0x42a254c0	81.16553
100	0x4283fc88	65.993225
101	0xc2f512ce	-122.53673
102	0xc21d4ec4	-39.32692
103	0x42108c92	36.137276
104	0xc2ff4529	-127.63508
105	0x41df687b	27.926016
106	0xc0e9bf79	-7.304623
107	0x4145fc61	12.374116
108	0xc17ce236	-15.805227
109	0x429d405a	78.62569
110	0xc3b01490	-352.16064
111	0x41076bb1	8.463792
112	0xc102d6e3	-8.177463
113	0x428d79b3	70.73769
114	0x41ef053f	29.877562
115	0x42b1f8c4	88.98587
116	0xc2fbd6d8	-125.91962
117	0x4219bf48	38.4368
118	0xc21973c9	-38.36307
119	0x43044e8f	132.30687
120	0xc24a99d4	-50.650223
121	0x42bc227d	94.06736
122	0xc3f71b0f	-494.2114
123	0x4219df08	38.467804
124	0xc209c948	-34.446564
125	0x43270190	167.0061
126	0xc1dda460	-27.705261
127	0x3f142113	0.5786297
128	0xc1b423a1	-22.517397
129	0xc0f72992	-7.7238245
130	0xbf908367	-1.1290101
131	0x42cbc2ad	101.880226
132	0x4244f023	49.23451
133	0xc1ca6e6c	-25.303917
134	0x428c9ff1	70.312386
135	0x410a741b	8.653346
136	0x405f5c8d	3.4900239
137	0xc2884f54	-68.15494
138	0xc0fce8ba	-7.903409
139	0x41bf319a	23.89922
140	0xc2b130eb	-88.59554
141	0x421ba5ab	38.911785
142	0xc1f31c74	-30.388893
143	0xc28b7ef6	-69.74797
144	0xc1216cd9	-10.089074
145	0x420b805c	34.87535
146	0xc3ba116f	-372.1362
147	0x41c31d5c	24.389336
148	0x40b107bf	5.5321956
149	0x42140fa1	37.015263
150	0x41eec99d	29.848444
151	0x4256d1e3	53.704967
152	0xc2bf9b38	-95.80316
153	0x423d7620	47.365356
154	0xc236fe33	-45.74824
155	0x4200287a	32.039528
156	0xc2dc92df	-110.28686
157	0x42c0e439	96.44575
158	0xc3e53212	-458.39117
159	0x426bcbf9	58.949192
160	0xc1fc1891	-31.511995
161	0x4371d498	241.83044
162	0x414d2e95	12.823873
163	0x411e0288	9.875618
164	0x430e18cc	142.09686
165	0xc26fe18f	-59.970272
166	0xc1d65407	-26.791029
167	0x421b13a2	38.769173
168	0x426e1a81	59.525883
169	0xc27185ec	-60.380783
170	0x43d50ba1	426.09085
171	0xc1a2a433	-20.330175
172	0x40c7964a	6.237096
173	0xc3447200	-196.44531
174	0x42331deb	44.779217
175	0x407edb4b	3.9821346
176	0x4306a8d1	134.65944
177	0xc1adecf5	-21.740702
178	0xc21c42f1	-39.065372
179	0xc2ed8df8	-118.77728
180	0x411c47c1	9.767518
181	0x422040ff	40.063473
182	0xc3c0199a	-384.2
183	0x41e2bf0a	28.34328
184	0x405af738	3.421339
185	0x4291c05e	72.87572
186	0xc1290504	-10.5637245
187	0x42262a3a	41.541237
188	0xc2bfc396	-95.882
189	0x41d8fa9a	27.122364
190	0xc1a37c0d	-20.435572
191	0xc2b9cdff	-92.902336
192	0xc298e4eb	-76.447105
193	0x429c543d	78.16453
194	0xc40eedaf	-571.7138
195	0x4257183f	53.773678
196	0xc1ed19c8	-29.637589
197	0x422a3059	42.547215
198	0x424d3959	51.306004
199	0xc1b95b6b	-23.169638
200	0x4293ac11	73.83607
201	0xc18830e4	-17.023872
202	0xc22c3410	-43.050842
203	0x4228c52d	42.192554
204	0x42a03cd7	80.11883
205	0xc231080c	-44.25786
206	0x43b6517c	364.6366
207	0x416eb446	14.919012
208	0x40013f14	2.019475
209	0xc35a3ffc	-218.24994
210	0x428f1971	71.54969
211	0xc155517b	-13.332393
212	0xc1e29710	-28.323761
213	0xc01a2d94	-2.4090319
214	0xc20b2911	-34.790104
215	0x41c0747f	24.056883
216	0xc2363250	-45.549133
217	0x42bf7197	95.721855
218	0xc3b53339	-362.40018
219	0x42479dcf	49.90411
220	0x41b4e0b4	22.609718
221	0xc1818c35	-16.19346
222	0xc245d951	-49.462223
223	0x428943f9	68.63276
224	0xc283895e	-65.768295
225	0x41e9a617	29.206099
226	0xc0f45889	-7.6358075
227	0xc3230240	-163.00879
228	0xc2c5aeab	-98.84115
229	0x42bc8961	94.26832
230	0xc3e16095	-450.75455
231	0x423abf11	46.68659
232	0xc1dd6159	-27.672533
233	0xc2785cc6	-62.0906
234	0xc1eaf9fe	-29.372066
235	0x40d2a5e2	6.5827494
236	0xc2595fae	-54.343437
237	0x40b3e5c9	5.6218
238	0x4037636f	2.865444
239	0x41e5ce63	28.725775
240	0xc10633e7	-8.387671
241	0x4218fb8a	38.245644
242	0x42bc69f4	94.20694
243	0x400053ca	2.005114
244	0x421e8f8a	39.640175
245	0xc37c617e	-252.38083
246	0xc140c231	-12.04741
247	0x40f48d66	7.6422606
248	0xc2267815	-41.617268
249	0x41e92453	29.142736
250	0xc13837ef	-11.513656
251	0x42285a99	42.088474
252	0x40e4ea04	7.1535664
253	0x429e3b61	79.115974
254	0xc38bd6ee	-279.67914
255	0x424d682c	51.35173

exp_avg_sq f4 [9, 1, 16]
0	0x498e5a04	1.1661445e+06
1	0x4a63abef	3.7301718e+06
2	0x49782a00	1.01648e+06
3	0x499da1a4	1.2913165e+06
4	0x48c1a194	396556.62
5	0x4a518113	3.4325168e+06
6	0x4b2d5eab	1.1361963e+07
7	0x4a3c090b	3.0807708e+06
8	0x4a40c9dd	3.1586472e+06
9	0x4a2b010f	2.8017318e+06
10	0x4a6a8a17	3.8426938e+06
11	0x483a9402	191056.03
12	0x4a5d8b42	3.6297765e+06
13	0x4a79364b	4.0830908e+06
14	0x4996d08e	1.2354738e+06
15	0x48cb8e51	416882.53
16	0x4a0a00be	2.2610395e+06
17	0x4a781147	4.0643378e+06
18	0x495b64b6	898635.4
19	0x4945654b	808532.7
20	0x490d4f66	578806.4
21	0x4a891846	4.492323e+06
22	0x4a7df99d	4.1611272e+06
23	0x4b3ba5a1	1.2297633e+07
24	0x4ac0186e	6.294583e+06
25	0x4aaab0b5	5.5931785e+06
26	0x4aa8498d	5.5144385e+06
27	0x48d8380e	442816.44
28	0x4acc752a	6.699669e+06
29	0x4ac00e87	6.2933155e+06
30	0x49ef2cbf	1.9593199e+06
31	0x4a2157ad	2.6434352e+06
32	0x4a27c006	2.7484175e+06
33	0x499ac792	1.2679542e+06
34	0x491e3495	648009.3
35	0x49a72f7a	1.3695832e+06
36	0x495bd8c8	900492.5
37	0x49dd2a39	1.8117831e+06
38	0x496751f5	947487.3
39	0x4b57bacf	1.4138063e+07
40	0x4b280fc7	1.1014087e+07
41	0x49e1ae33	1.8487744e+06
42	0x4a09be81	2.2568002e+06
43	0x48c88498	410660.75
44	0x4a3efaef	3.1290198e+06
45	0x4a8b77c4	4.570082e+06
46	0x49d5f862	1.7528442e+06
47	0x4a76eaf2	4.0455005e+06
48	0x4948666a	820838.6
49	0x4aa47189	5.3884845e+06
50	0x47ece475	121288.914
51	0x48cd0a6f	419923.47
52	0x49ddfc8e	1.8185138e+06
53	0x4a9183a3	4.7682095e+06
54	0x4a9a4a6f	5.0557995e+06
55	0x4a63f2c1	3.7347042e+06
56	0x4a85a907	4.3797795e+06
57	0x4910466b	590950.7
58	0x4a178592	2.4825325e+06
59	0x48027cc4	133619.06
60	0x49ff352d	2.0906616e+06
61	0x4af21f92	7.933897e+06
62	0x4a4486f0	3.2199e+06
63	0x48aed6f5	358071.66
64	0x49255901	677264.06
65	0x4a770651	4.0472522e+06
66	0x49dce347	1.8095129e+06
67	0x49311fca	725500.6
68	0x49a49ef6	1.3485748e+06
69	0x49f7d53b	2.0302474e+06
70	0x4a7d23e8	4.14745e+06
71	0x4967f5f0	950111.0
72	0x4960f5a3	921434.2
73	0x4a3d2f58	3.099606e+06
74	0x4af66646	8.074019e+06
75	0x488e5197	291468.72
76	0x49d7f754	1.7691945e+06
77	0x4a363b94	2.985701e+06
78	0x48a9f28c	348052.38
79	0x492a5600	697696.0
80	0x4a1092c9	2.3686902e+06
81	0x4a78803f	4.0714398e+06
82	0x4937d495	752969.3
83	0x49d4b885	1.7426086e+06
84	0x4993d363	1.2109884e+06
85	0x4a6ab5dd	3.8454952e+06
86	0x49cab9ce	1.6607298e+06
87	0x4928647c	689735.75
88	0x4ab053a8	5.777876e+06
89	0x4aa3d461	5.3683685e+06
90	0x4ac95e76	6.598459e+06
91	0x48c51ace	403670.44
92	0x4971477e	988279.9
93	0x4ab19831	5.8194165e+06
94	0x499a6a92	1.2649782e+06
95	0x4a812b23	4.2325935e+06
96	0x486542ab	234762.67
97	0x4a2a39f3	2.7889888e+06
98	0x48aef936	358345.7
99	0x4916ca08	617632.5
100	0x49f3d6c1	1.9975281e+06
101	0x4a017e1d	2.1216072e+06
102	0x4918bcb9	625611.56
103	0x4a5b38e3	3.5917368e+06
104	0x4a965bb1	4.9269365e+06
105	0x48fcc6d1	517686.53
106	0x4a5feea1	3.6689042e+06
107	0x48e16232	461585.56
108	0x490edf02	585200.1
109	0x4a529b7e	3.4505915e+06
110	0x4a8de2a1	4.6492965e+06
111	0x4a1f27e3	2.6076088e+06
112	0x48e5a0e7	470279.22
113	0x4a90a954	4.740266e+06
114	0x4930d1ed	724254.8
115	0x491dc009	646144.56
116	0x49867dfc	1.1017595e+06
117	0x4911fdcc	597980.75
118	0x497bb91a	1.0310576e+06
119	0x4ac319bc	6.393054e+06
120	0x4a5eb3c4	3.648753e+06
121	0x49f8d95d	2.0385716e+06
122	0x4a213e75	2.6418212e+06
123	0x48b08d56	361578.7
124	0x48fdc3db	519710.84
125	0x49afef98	1.441267e+06
126	0x4a1ef78b	2.6045148e+06
127	0x49a15cd2	1.3218822e+06
128	0x490e3d13	582609.2
129	0x4b38ab18	1.2102424e+07
130	0x494ed4c5	847180.3
131	0x49963b3e	1.2306958e+06
132	0x49369ded	747998.8
133	0x49da26ce	1.7870978e+06
134	0x496449bc	935067.75
135	0x499786f4	1.2413105e+06
136	0x4a7a1f43	4.0980008e+06
137	0x4a3db049	3.1078582e+06
138	0x4994213b	1.2134794e+06
139	0x48fa3322	512409.06
140	0x490099a7	526746.44
141	0x4a92d1a3	4.8109615e+06
142	0x49a3e985	1.3427686e+06
143	0x49e460dc	1.8708755e+06

exp_avg f4 [9, 1, 16]
0	0xc3a63570	-332.41748
1	0x42cfdc0f	103.9298
2	0x4317e8aa	151.90884
3	0xc2b937fe	-92.60936
4	0xc2731932	-60.774605
5	0xc2aa600e	-85.18761
6	0xc11c8df8	-9.78466
7	0x430aa91b	138.66057
8	0x42a1792c	80.736664
9	0x42fd217a	126.565384
10	0x436e63db	238.39006
11	0x425f99c5	55.900166
12	0xc4171c31	-604.4405
13	0xc167a566	-14.4778805
14	0x42d8d443	108.41457
15	0x4195f310	18.743683
16	0xc40918ad	-548.38556
17	0x423ae3ce	46.722466
18	0x43620a12	226.03934
19	0x4194fb21	18.622622
20	0xc257884b	-53.8831
21	0x426a6452	58.59797
22	0x430f846c	143.51727
23	0x431f23f9	159.14052
24	0x430a5116	138.31674
25	0x433d834a	189.51285
26	0xc3585100	-216.3164
27	0x426bab09	58.917027
28	0xc45dd095	-887.2591
29	0xc338f879	-184.9706
30	0x4318223e	152.13376
31	0x4344eb63	196.91948
32	0xc409a7dc	-550.6228
33	0xc203a801	-32.914066
34	0x4320520d	160.32051
35	0x4378a49d	248.64302
36	0x428c3744	70.10794
37	0xc2ff4c0e	-127.648544
38	0x4337d846	183.84482
39	0x43d40639	424.0486
40	0xc0e4d0ca	-7.150487
41	0x440698d4	538.38794
42	0xc3fcf557	-505.91672
43	0x431eb646	158.712
44	0xc4931eaa	-1176.9583
45	0xc3a23c6c	-324.47205
46	0xc1c98b55	-25.193033
47	0x43e5d5f3	459.67148
48	0x418cef2f	17.616789
49	0xc052e0a8	-3.294962
50	0x42526b46	52.60476
51	0x4131b3d7	11.106406
52	0xc2668bbc	-57.63646
53	0xc3073f16	-135.24643
54	0xc3111923	-145.09819
55	0x429baee8	77.84161
56	0x42a4a61c	82.32443
57	0x43c17035	386.87662
58	0xc2b447b7	-90.14007
59	0xc161262f	-14.071822
60	0xc2a18d05	-80.77543
61	0xc347242d	-199.14131
62	0x41e16416	28.17387
63	0x428167ef	64.702995
64	0x431b385b	155.22014
65	0x41b80978	23.004623
66	0x42938ab4	73.770905
67	0x4278abff	62.167965
68	0x428ed764	71.420685
69	0x41bf769c	23.932915
70	0xc37ea460	-254.64209
71	0x435240bb	210.25285
72	0xc2fd4ccc	-126.649994
73	0xc275b07e	-61.422356
74	0xc34d3323	-205.19975
75	0xc2c10e5e	-96.52806
76	0xc37fe2ca	-255.8859
77	0xc3dcb256	-441.39325
78	0x41834504	16.408699
79	0x4396066b	300.05014
80	0xc30c164c	-140.0871
81	0x42b64dd3	91.152
82	0x4190c193	18.094519
83	0x4396940b	301.1566
84	0x43047900	132.47266
85	0xc1332aaf	-11.197921
86	0xc328ddb6	-168.86606
87	0x43246655	164.39973
88	0x42e22fbe	113.09325
89	0xc32a6ed0	-170.43286
90	0xc33717a5	-183.09236
91	0x4294e6a1	74.45045
92	0xc3be4d96	-380.60614
93	0xc3eba3b8	-471.27905
94	0xc277dd2a	-61.96598
95	0x441f04e2	636.0763
96	0x4326a47d	166.64253
97	0x4321f93a	161.97354
98	0x40e5e0cd	7.1836915
99	0x439dadef	315.35886
100	0xc3537cee	-211.488
101	0xc30b560a	-139.33609
102	0xc37a71c0	-250.44434
103	0x4330d59b	176.8344
104	0x42d5dde6	106.933395
105	0x43055c37	133.36021
106	0xc24084bc	-48.129623
107	0x426cab5c	59.167343
108	0x426f2892	59.78962
109	0xc4101829	-576.3775
110	0xc305369d	-133.21333
111	0x44035623	525.3459
112	0x436cbbdc	236.73383
113	0x4320a5f3	160.64824
114	0x424bcd5c	50.950546
115	0x433bce12	187.80496
116	0xc1d642c5	-26.782602
117	0xc2359305	-45.393574
118	0xc3f51823	-490.18857
119	0x43377f64	183.49762
120	0xc327eb6d	-167.91963
121	0x42561273	53.518017
122	0x41dfe981	27.989016
123	0xc2590396	-54.2535
124	0x43aa5973	340.69882
125	0xc3a4ee8d	-329.86368
126	0xc2edaac0	-118.833496
127	0x43af52da	350.64728
128	0xc33f1e53	-191.11845
129	0x422f24c8	43.78592
130	0x430047b3	128.28008
131	0x4291433f	72.63134
132	0xc229701f	-42.359493
133	0x420f7969	35.868565
134	0xc336aa75	-182.66585
135	0x41a9daab	21.231771
136	0x42e7f421	115.976814
137	0x40d81f15	6.753794
138	0x42df9822	111.797134
139	0x420dbd89	35.435093
140	0x438fc6c7	287.55295
141	0xc35c642f	-220.39134
142	0xc28740e6	-67.626755
143	0x43cfdee3	415.7413

exp_avg_sq f4 [4]
0	0x3948c11e	0.00019145428
1	0x398a3a09	0.0002636465
2	0x38affb17	8.3914194e-05
3	0x3a056d68	0.000508985

exp_avg f4 [4]
0	0xbb1600b4	-0.0022888603
1	0x3b23d491	0.0024998526
2	0x3a992f52	0.0011687076
3	0x3b2eff4f	0.0026702469

exp_avg_sq f4 [9, 4, 4]
0	0x3837b775	4.3801458e-05
1	0x38605fb0	5.3494878e-05
2	0x37d5d5f4	2.5491208e-05
3	0x37fb8377	2.998275e-05
4	0x386b9f73	5.6176865e-05
5	0x386c8e20	5.639915e-05
6	0x377572cf	1.4629869e-05
7	0x37d1fc2e	2.5032172e-05
8	0x3728b31f	1.0055285e-05
9	0x375bdbbb	1.3104577e-05
10	0x3697c663	4.523246e-06
11	0x36c4c706	5.8644246e-06
12	0x38198ca9	3.6609043e-05
13	0x383c522a	4.4899214e-05
14	0x37381f10	1.0974487e-05
15	0x3819ecad	3.6698464e-05
16	0x38528001	5.0187115e-05
17	0x37f0d513	2.870945e-05
18	0x3790c79e	1.7259092e-05
19	0x37bf0e53	2.2775645e-05
20	0x37eaa734	2.7972834e-05
21	0x386d1f07	5.65341e-05
22	0x375bacad	1.3093621e-05
23	0x37da773b	2.6043146e-05
24	0x370a66ce	8.249377e-06
25	0x37803f89	1.5288375e-05
26	0x366c7545	3.5235e-06
27	0x36ae5504	5.195501e-06
28	0x3845ebb3	4.7187972e-05
29	0x382b6ac7	4.086902e-05
30	0x375caa7b	1.3152715e-05
31	0x3809d00e	3.285711e-05
32	0x38a50797	7.869227e-05
33	0x3804c617	3.1655738e-05
34	0x37a3e18e	1.9536146e-05
35	0x37d44e0b	2.5308711e-05
36	0x37782d7e	1.4792544e-05
37	0x37e99ae2	2.7847887e-05
38	0x37645f62	1.3612067e-05
39	0x3777f829	1.4780127e-05
40	0x36de9115	6.6330053e-06
41	0x372cd880	1.0302407e-05
42	0x36822285	3.8783205e-06
43	0x3662fe82	3.3824767e-06
44	0x388378b5	6.26905e-05
45	0x3874be13	5.8351154e-05
46	0x37be9d8f	2.2723134e-05
47	0x38330951	4.2685602e-05
48	0x38960126	7.152771e-05
49	0x387a93a6	5.9742153e-05
50	0x37db9d76	2.6180158e-05
51	0x37d1673f	2.496282e-05
52	0x388fbb1d	6.853624e-05
53	0x385d7513	5.279954e-05
54	0x37a5fd96	1.9787618e-05
55	0x37dba6d7	2.6184525e-05
56	0x36ee82f9	7.1082e-06
57	0x373047b7	1.0507115e-05
58	0x36a32a7c	4.8627244e-06
59	0x36ec75d4	7.047065e-06
60	0x384a7970	4.827365e-05
61	0x388f2070	6.824813e-05
62	0x37bc7dbb	2.2469894e-05
63	0x38535aa8	5.039075e-05
64	0x38d6522b	0.0001021962
65	0x38b213cb	8.491388e-05
66	0x382d9873	4.1388394e-05
67	0x383b20e4	4.4614906e-05
68	0x38a72764	7.9705176e-05
69	0x3886b587	6.42343e-05
70	0x377d9435	1.5114482e-05
71	0x37d4e85a	2.5380567e-05
72	0x3764fd32	1.3648811e-05
73	0x37a553b7	1.9708516e-05
74	0x36efb8a2	7.144249e-06
75	0x373be089	1.1198347e-05
76	0x3890fb70	6.913289e-05
77	0x389e5aea	7.550961e-05
78	0x37cd496e	2.4472098e-05
79	0x3839b5b2	4.4276654e-05
80	0x38aadab5	8.146969e-05
81	0x381a3710	3.6767742e-05
82	0x379a529c	1.8396699e-05
83	0x37be2b18	2.2669832e-05
84	0x3817424b	3.6062946e-05
85	0x380de0e5	3.382647e-05
86	0x36edda92	7.0885953e-06
87	0x376bbca2	1.4051011e-05
88	0x3722222c	9.663909e-06
89	0x372c749c	1.0279149e-05
90	0x36960ffa	4.4722083e-06
91	0x36a4a311	4.9065643e-06
92	0x388f7244	6.840055e-05
93	0x388ee41e	6.813578e-05
94	0x37a6a396	1.9864918e-05
95	0x38314673	4.22657e-05
96	0x38e0c237	0.00010717328
97	0x3891bc52	6.949216e-05
98	0x37fbb1fe	3.0004416e-05
99	0x37e70264	2.753846e-05
100	0x379912c7	1.8247765e-05
101	0x37dee924	2.6573027e-05
102	0x3753c331	1.2622027e-05
103	0x38047ff7	3.159043e-05
104	0x36763b10	3.6691235e-06
105	0x36ddcdb1	6.610259e-06
106	0x3622c539	2.425468e-06
107	0x36a451b0	4.8970905e-06
108	0x3881722f	6.172468e-05
109	0x38a56665	7.8868856e-05
110	0x38097133	3.276877e-05
111	0x384b3a8a	4.845349e-05
112	0x38b1b00c	8.472809e-05
113	0x388cdec4	6.7172135e-05
114	0x37d8c4ef	2.584091e-05
115	0x380efcda	3.4090925e-05
116	0x3880c665	6.1404695e-05
117	0x38a304c1	7.773331e-05
118	0x37b3947f	2.1407612e-05
119	0x37d461ac	2.5317851e-05
120	0x36ce73bb	6.152751e-06
121	0x37549c4d	1.2672576e-05
122	0x36afbb75	5.2372293e-06
123	0x36c1a451	5.770977e-06
124	0x38597f1d	5.1855215e-05
125	0x3893bdd6	7.044866e-05
126	0x37bc2262	2.2427357e-05
127	0x3821be1e	3.856245e-05
128	0x385d23ae	5.2723735e-05
129	0x38923bb0	6.97294e-05
130	0x37e6b18f	2.7500819e-05
131	0x38176d69	3.61031e-05
132	0x38a7c372	7.999585e-05
133	0x386c648c	5.6360426e-05
134	0x37a17bdc	1.9250372e-05
135	0x37744e5b	1.4561777e-05
136	0x371cff62	9.3577855e-06
137	0x372a5bb8	1.0154145e-05
138	0x36abbcd1	5.1181783e-06
139	0x3691cc46	4.3451173e-06
140	0x382149be	3.845407e-05
141	0x388053a4	6.119095e-05
142	0x37962190	1.7897022e-05
143	0x3830539f	4.2039548e-05

exp_avg f4 [9, 4, 4]
0	0x38f91023	0.00011876251
1	0xbacaf907	-0.0015485593
2	0xb9bcde0b	-0.0003602359
3	0xba69fedd	-0.0008926222
4	0x397351da	0.00023204778
5	0xba6e7576	-0.00090964825
6	0x3a84de41	0.0010137038
7	0xb9c6f0fc	-0.0003794505
8	0xb8f5c4b5	-0.0001171915
9	0xba6ebb88	-0.0009106924
10	0xb92cb4cb	-0.00016470549
11	0xb9c043cd	-0.0003667161
12	0x3a32cfec	0.0006821144
13	0xba4b7515	-0.0007761282
14	0xb9fe5a8a	-0.00048514112
15	0xba2cf7d1	-0.0006598207
16	0x3a1ad33e	0.00059061113
17	0xb861593a	-5.372728e-05
18	0x3a46ae0f	0.00075790373
19	0x39a98474	0.00032332877
20	0x39c625f6	0.00037793786
21	0xbb0b0a0d	-0.0021215708
22	0xb82120b7	-3.841586e-05
23	0xbace25cf	-0.001572782
24	0x38a02b9f	7.6375196e-05
25	0xbad7b016	-0.0016455676
26	0xba25cce4	-0.00063247816
27	0xba4ad62d	-0.0007737603
28	0x3a32cb42	0.0006820449
29	0x3a1e5e7e	0.0006041302
30	0x3a2cc5c0	0.00065907463
31	0x39c9444c	0.00038388593
32	0x3a8cec18	0.0010751514
33	0xb8170814	-3.600873e-05
34	0x3a4a5409	0.00077182107
35	0x3a0f61ba	0.00054695795
36	0x39c7c2bf	0.00038101335
37	0xbb11c6fe	-0.0022243853
38	0xba6b4053	-0.00089741236
39	0xbaf602ff	-0.0018769203
40	0x392f0e44	0.00016694615
41	0xbae5d29c	-0.001753408
42	0xba82bfcf	-0.0009975376
43	0xba40cd13	-0.0007354777
44	0x3a399ced	0.00070805737
45	0x3aa677d6	0.0012700509
46	0x3aa2fbe1	0.0012434685
47	0x3a70736b	0.0009172472
48	0x3a26e0a6	0.00063658727
49	0xbb131ea3	-0.002244868
50	0xba09dc39	-0.0005258951
51	0xbab56d53	-0.0013841785
52	0xba5dc02c	-0.0008459117
53	0x3a1d9a7c	0.00060120947
54	0x3a1cd972	0.00059833296
55	0x399e3345	0.00030174307
56	0xb9c437bf	-0.00037425567
57	0xb99b1cc5	-0.0002958534
58	0xb9b8efe3	-0.00035273944
59	0xb981f449	-0.00024786804
60	0x3a1a798a	0.00058927445
61	0xba881a0b	-0.0010383738
62	0xb7b6a8fd	-2.1774782e-05
63	0xba5b782b	-0.00083720934
64	0x3a314f55	0.00067638356
65	0xbb9abec8	-0.00472245
66	0xbb00c2b8	-0.0019647311
67	0xbb1e6a88	-0.0024172384
68	0xba558e02	-0.0008146466
69	0xb9f9e9f2	-0.00047667284
70	0x3a571c3a	0.0008205805
71	0xb9190146	-0.00014591691
72	0xb9c8f4c8	-0.0003832935
73	0xb9f0e25c	-0.00045945018
74	0xb9bf78e3	-0.00036520427
75	0xb9beb494	-0.00036374165
76	0x3a6e6788	0.0009094407
77	0xbac38831	-0.0014917908
78	0xb9ccf55d	-0.00039092722
79	0xba8e8f61	-0.001087647
80	0x39ee5c97	0.00045463882
81	0xbb451181	-0.0030070248
82	0xbaa7d546	-0.0012804649
83	0xba362a2a	-0.0006949032
84	0x37ea98f2	2.7966194e-05
85	0xbae4ee97	-0.0017466125
86	0x39b9c98f	0.00035436123
87	0xba481cb4	-0.00076336716
88	0xb8595fc6	-5.1826028e-05
89	0xba769f86	-0.0009407926
90	0xba1605eb	-0.0005722928
91	0xb9ef292e	-0.00045616314
92	0x3a505198	0.0007946729
93	0xb8df0623	-0.00010634612
94	0x39591192	0.00020701278
95	0xb87dd147	-6.0514805e-05
96	0xba9bec87	-0.0011896052
97	0xbae1c3e1	-0.0017224514
98	0xba87439c	-0.0010319832
99	0xb9a49bbf	-0.00031396557
100	0xba00761d	-0.0004900413
101	0x3a44fb7a	0.00075142796
102	0x3a251681	0.0006297604
103	0x39aeb257	0.0003332074
104	0xb893379e	-7.019866e-05
105	0x3922f25f	0.00015539814
106	0x36dfddcf	6.67174e-06
107	0xb96f747a	-0.00022836207
108	0xba656ad4	-0.00087515754
109	0xb9b4b318	-0.0003446571
110	0xb8bf7510	-9.129394e-05
111	0xb9304c36	-0.00016813059
112	0xb9e8b9a1	-0.00044388793
113	0xba9a7c3c	-0.0011786292
114	0xba371f64	-0.00069855736
115	0xb938b832	-0.00017616226
116	0xba84af79	-0.0010123096
117	0x3984333d	0.00025215177
118	0x3a2c08e9	0.0006562607
119	0x3988fa5b	0.0002612647
120	0xb980f9d3	-0.00024600196
121	0x3981a7c3	0.0002472979
122	0x395bf92b	0.0002097829
123	0xb9182cdc	-0.00014512561
124	0xb7078d94	-8.079591e-06
125	0xb96126e1	-0.00021472156
126	0x39494c3c	0.00019197253
127	0xb752ee8e	-1.2572518e-05
128	0xb8e47156	-0.00010892998
129	0xbb0ea48a	-0.0021765553
130	0xb9e43346	-0.0004352575
131	0xba9e939c	-0.0012098434
132	0xba7cd54e	-0.0009644822
133	0x3885df0e	6.3834814e-05
134	0x3ab8238e	0.0014048682
135	0x39abad02	0.00032744562
136	0xb96169a5	-0.00021497028
137	0x37e7a7a8	2.7615417e-05
138	0x39c46865	0.00037461813
139	0xb8a80d7a	-8.0133745e-05
140	0x3a331599	0.00068315264
141	0xba14a50f	-0.00056703476
142	0x39f2f2b0	0.00046338653
143	0xb99ad610	-0.00029532658

exp_avg_sq f4 [6]
0	0x49cdb95d	1.6852916e+06
1	0x4949cbf2	826559.1
2	0x49c6cba9	1.6285331e+06
3	0x4a29c4a7	2.7814818e+06
4	0x4a304557	2.8880218e+06
5	0x49325cbd	730571.8

exp_avg f4 [6]
0	0xc33e8465	-190.51717
1	0xc0e506db	-7.157087
2	0xc2b1cbf2	-88.89833
3	0xc2c45356	-98.162766
4	0xc41464e8	-593.57666
5	0xc214f221	-37.236454

exp_avg_sq f4 [16]
0	0x3a9fa181	0.0012178869
1	0x3ac28434	0.0014840425
2	0x3a00f722	0.0004919638
3	0x3afb5f98	0.001917827
4	0x39ab8618	0.0003271557
5	0x3a020500	0.00049598515
6	0x3b71558c	0.0036824672
7	0x3aeecc84	0.0018218909
8	0x3a801d3a	0.0009774335
9	0x3a749bf1	0.00093310984
10	0x3a4656b2	0.0007566019
11	0x3a49eab3	0.00077025144
12	0x3b062fa5	0.0020475176
13	0x3a52dae8	0.0008043484
14	0x3b4af068	0.0030966047
15	0x3a72cfa3	0.00092625077

exp_avg f4 [16]
0	0xb92c50fc	-0.00016433367
1	0x3acf4498	0.0015813289
2	0xbb70d70c	-0.0036749272
3	0x3b17c776	0.002315966
4	0xbb84b335	-0.0040496835
5	0xbbbb1d4d	-0.00571028
6	0x3b53f646	0.0032342835
7	0xbc27cca2	-0.010241659
8	0x3b976ff3	0.0046214997
9	0x3b8132e1	0.003942833
10	0xba84c568	-0.0010129632
11	0xbb9681fa	-0.004593131
12	0x3b8843d4	0.0041584764
13	0xba29229c	-0.00064519956
14	0x3b729771	0.0037016536
15	0xbac44eb3	-0.0014977067

exp_avg_sq f4 [4]
0	0x3b3e5ec8	0.0029048193
1	0x3bcc5879	0.0062361327
2	0x3b0ae936	0.0021196133
3	0x3b185583	0.0023244328

exp_avg f4 [4]
0	0xba0b0c68	-0.0005304278
1	0x3bf64bb7	0.00751635
2	0x3b7509be	0.003738984
3	0x3bce3e7d	0.0062940703

exp_avg_sq f4 [6]
0	0x4b9c23da	2.0465588e+07
1	0x495bfe12	901089.1
2	0x4a99c63d	5.0388785e+06
3	0x4b1186f3	9.537267e+06
4	0x4bc5ccea	2.59261e+07
5	0x491ac7a6	633978.4

exp_avg f4 [6]
0	0x429eac2e	79.33629
1	0x42d0cfa9	104.40559
2	0xc3abb930	-343.44678
3	0x43ca17ea	404.18683
4	0xc37512f1	-245.07399
5	0x43170c10	151.04712

exp_avg_sq f4 [4]
0	0x3b3c191f	0.0028701497
1	0x3b406fde	0.0029363553
2	0x3b7b50c8	0.003834771
3	0x3a6f52d9	0.0009129472

exp_avg f4 [4]
0	0xbb71e409	-0.0036909601
1	0x3b24b266	0.0025130748
2	0x3ba2bb2c	0.0049661603
3	0x39ced01d	0.00039446438

exp_avg_sq f4 [4]
0	0x3a7f5f90	0.0009741718
1	0x395b27c0	0.00020900276
2	0x384e437a	4.917707e-05
3	0x39f6d63e	0.000470804

exp_avg f4 [4]
0	0xbc02949c	-0.007970002
1	0x3b1b114a	0.0023661428
2	0x3931ac70	0.00016944273
3	0xbb3be072	-0.0028667715

exp_avg_sq f4 [4]
0	0x3b0603ae	0.002044897
1	0x399c3d1a	0.00029800163
2	0x3ac4e4bd	0.0015021783
3	0x3b172d05	0.0023067605

exp_avg f4 [4]
0	0xbbac1d46	-0.005252513
1	0xbaaae9db	-0.0013039665
2	0x3b653fa2	0.0034980555
3	0x3be266de	0.0069092354

exp_avg_sq f4 [9, 4, 4]
0	0x37240745	9.776854e-06
1	0x385c42bd	5.2514242e-05
2	0x37d26960	2.508302e-05
3	0x38f44053	0.00011646808
4	0x37235908	9.736286e-06
5	0x3774ed40	1.4598772e-05
6	0x36e77339	6.89775e-06
7	0x37ba8ca8	2.2238426e-05
8	0x345d1279	2.0588949e-07
9	0x3550c8c3	7.7778185e-07
10	0x35212408	6.0029606e-07
11	0x35979c81	1.1295925e-06
12	0x385a6046	5.2064912e-05
13	0x38a5e109	7.909729e-05
14	0x3811789a	3.4683013e-05
15	0x390c1f36	0.00013363067
16	0x36c383db	5.826803e-06
17	0x37c58309	2.3545248e-05
18	0x375a7ea3	1.30232975e-05
19	0x380ac300	3.308337e-05
20	0x36a74ad5	4.9856994e-06
21	0x370c513e	8.363566e-06
22	0x36a5e94b	4.944542e-06
23	0x37885f22	1.6256763e-05
24	0x34653991	2.134823e-07
25	0x357da51b	9.4490105e-07
26	0x3593b4ea	1.1005006e-06
27	0x35bdccb9	1.414118e-06
28	0x38305a5d	4.2045827e-05
29	0x38aed7b2	8.337143e-05
30	0x37a6c81f	1.988193e-05
31	0x3904af40	0.00012653787
32	0x3714db3b	8.872531e-06
33	0x37a9b76a	2.0231779e-05
34	0x375d1291	1.3176949e-05
35	0x38125ede	3.4897465e-05
36	0x36257dd3	2.4660155e-06
37	0x362c4836	2.567203e-06
38	0x3601c5ab	1.9337556e-06
39	0x36825f02	3.8853623e-06
40	0x3448cde8	1.870136e-07
41	0x353fe55a	7.1486795e-07
42	0x353c043e	7.004163e-07
43	0x35755b8e	9.140284e-07
44	0x388a62a8	6.598729e-05
45	0x38c71441	9.492832e-05
46	0x3796febc	1.8000013e-05
47	0x390e7bcd	0.00013588295
48	0x38876577	6.456201e-05
49	0x38a23e09	7.736317e-05
50	0x37b44d2c	2.1493608e-05
51	0x388f32cd	6.828234e-05
52	0x35e5cf1a	1.7122104e-06
53	0x3760d0ef	1.3400087e-05
54	0x37122a7d	8.712171e-06
55	0x36efad3f	7.1429236e-06
56	0x34a8387d	3.133354e-07
57	0x3551a33d	7.809611e-07
58	0x355cb1d4	8.221516e-07
59	0x356027bc	8.3504324e-07
60	0x38209314	3.828395e-05
61	0x38ab2eb7	8.162617e-05
62	0x3841f89f	4.6246332e-05
63	0x3920cbc6	0.000153347
64	0x37d3232c	2.5169538e-05
65	0x3860ce1f	5.3597727e-05
66	0x37ed21ae	2.8268285e-05
67	0x38fecb9a	0.000121495876
68	0x3692df21	4.3771147e-06
69	0x376bddb7	1.40587135e-05
70	0x371a690b	9.2035725e-06
71	0x37b0867c	2.104346e-05
72	0x35178e6a	5.6459123e-07
73	0x35b676ee	1.359467e-06
74	0x359615d2	1.1182221e-06
75	0x36097f19	2.0488571e-06
76	0x382946ef	4.0358802e-05
77	0x38f553f1	0.00011698146
78	0x3855fcd7	5.1018633e-05
79	0x392c18da	0.00016412456
80	0x37532c13	1.2586842e-05
81	0x3820b7b6	3.8318067e-05
82	0x37ac3132	2.0526906e-05
83	0x3883e62d	6.28944e-05
84	0x36c5bbbd	5.892913e-06
85	0x372513af	9.839349e-06
86	0x369a43ac	4.5974357e-06
87	0x379449b3	1.7677294e-05
88	0x347eebd6	2.374139e-07
89	0x3568f2f2	8.6780267e-07
90	0x35161609	5.591142e-07
91	0x353eec16	7.1124066e-07
92	0x3833701b	4.2781332e-05
93	0x38c028b0	9.162852e-05
94	0x3828a9ea	4.0212566e-05
95	0x391a7024	0.0001472836
96	0x38290ebc	4.0306462e-05
97	0x38071dd8	3.2214302e-05
98	0x37dcb219	2.6308977e-05
99	0x38192597	3.651305e-05
100	0x352e7355	6.498788e-07
101	0x36ad089e	5.156805e-06
102	0x36e96bc5	6.956487e-06
103	0x3636fd4c	2.7267552e-06
104	0x348690cf	2.5064807e-07
105	0x354b3ecf	7.571479e-07
106	0x353439a9	6.713913e-07
107	0x351ff806	5.959304e-07
108	0x38e369bc	0.00010843898
109	0x38a02d8b	7.6378776e-05
110	0x37f2aaab	2.8928122e-05
111	0x393077cf	0.000168293
112	0x3895b695	7.138882e-05
113	0x38990be5	7.297824e-05
114	0x379b2e2b	1.8498939e-05
115	0x386bb319	5.6195164e-05
116	0x3599a069	1.1446074e-06
117	0x37336dc4	1.0694788e-05
118	0x3704fd21	7.926749e-06
119	0x3680bfb4	3.8370144e-06
120	0x34cd5e36	3.8252773e-07
121	0x350975b8	5.120778e-07
122	0x353ed6e8	7.1093245e-07
123	0x355e3584	8.277932e-07
124	0x382e7b13	4.1599455e-05
125	0x3888e161	6.5269654e-05
126	0x38074c3e	3.2257514e-05
127	0x39324fbd	0.00017005108
128	0x3857f195	5.1484985e-05
129	0x38b0548f	8.408084e-05
130	0x37ceda71	2.4658833e-05
131	0x39580139	0.0002059982
132	0x35ee169d	1.7738963e-06
133	0x37629c92	1.3507104e-05
134	0x37060659	7.9885e-06
135	0x3739b336	1.1068585e-05
136	0x3435ac4f	1.6919624e-07
137	0x34adc2b1	3.2365418e-07
138	0x3525ab33	6.171642e-07
139	0x35757521	9.144006e-07
140	0x37e9f26a	2.7888647e-05
141	0x38c55c2b	9.41086e-05
142	0x383dced0	4.525372e-05
143	0x3954da2d	0.00020299172

exp_avg f4 [9, 4, 4]
0	0x3934dfea	0.00017249552
1	0x3a2e0400	0.0006638169
2	0x39ca6eb7	0.0003861093
3	0x39b26c3d	0.0003403145
4	0xba17ca70	-0.00057903584
5	0x39e2ff08	0.00043296092
6	0x39a6f920	0.000318476
7	0x3989e924	0.0002630438
8	0xb8d6bfc4	-0.00010240034
9	0x381cfb79	3.74275e-05
10	0x386368b8	5.4218544e-05
11	0x3907af5e	0.00012939933
12	0x3a983b76	0.00116144
13	0x3a6da57b	0.0009065491
14	0x39f1c91b	0.00046116937
15	0x39415332	0.00018436907
16	0xbad7a980	-0.0016453713
17	0x3ab12c69	0.0013517264
18	0x3a047059	0.00050521415
19	0x39279ad7	0.00015984043
20	0xba87c3c9	-0.0010358031
21	0x3a4918ea	0.0007671254
22	0x3a19e998	0.0005871295
23	0xb81d7095	-3.7536567e-05
24	0xb901740e	-0.00012345632
25	0x39069994	0.00012836448
26	0x38b45e76	8.6006636e-05
27	0x379ba67e	1.8554969e-05
28	0x3ad0eb60	0.0015939288
29	0x3adbeafa	0.0016778402
30	0x39a60c80	0.000316713
31	0x3a86a8b7	0.001027367
32	0xba944569	-0.001131219
33	0x3a8c6b86	0.0010713197
34	0x3a12c8a3	0.0005599355
35	0x3a0c8d23	0.0005361607
36	0xba09e2e8	-0.0005259947
37	0x39cac2c6	0.0003867356
38	0x3a022839	0.00049651
39	0xb950466e	-0.00019862663
40	0xb8e1debb	-0.00010770323
41	0x3798543a	1.8159033e-05
42	0xb48dbdc5	-2.6401372e-07
43	0xb8164efe	-3.5836354e-05
44	0x3b114687	0.0022167282
45	0x3b098e8a	0.00209895
46	0x39a8901a	0.0003215082
47	0x3b01a088	0.0019779522
48	0xba6ff82d	-0.00091541075
49	0xba81654b	-0.0009872107
50	0x38d070b0	9.9392026e-05
51	0xba33ede0	-0.0006863754
52	0x3977fa55	0.00023649012
53	0x38d1f88a	0.000100121906
54	0x36cea065	6.157951e-06
55	0x3960bce6	0.00021432675
56	0x36abb729	5.11752e-06
57	0xb7e6b7cd	-2.7503726e-05
58	0xb8b4ee39	-8.627441e-05
59	0x36df4b86	6.65471e-06
60	0xb9674ede	-0.00022059257
61	0x3a4e4366	0.00078683195
62	0x3a1a93ef	0.00058966776
63	0xba2d1f68	-0.0006604106
64	0x39d92af5	0.0004142147
65	0xb94e0c59	-0.00019650291
66	0x396a8b46	0.00022367862
67	0xbb16ec94	-0.0023029195
68	0xb9934900	-0.00028092414
69	0x39530fb2	0.00020128375
70	0x39242ec2	0.00015657677
71	0xb7ea9966	-2.7966405e-05
72	0xb78bc0b1	-1.665982e-05
73	0xb630d2a9	-2.6348664e-06
74	0xb81bb304	-3.71216e-05
75	0x3870ba9a	5.7394245e-05
76	0x3a462b1c	0.00075595244
77	0x3acd740b	0.0015674842
78	0x3a1ffba1	0.0006102864
79	0xba1022b0	-0.0005498333
80	0xba79f72d	-0.0009535428
81	0x37ff43c1	3.042992e-05
82	0x39de4ad4	0.0004239889
83	0xbb0a2631	-0.0021079893
84	0xba53ce92	-0.00080797926
85	0x39407281	0.00018353203
86	0x39651da5	0.00021850185
87	0xba2c5990	-0.0006574625
88	0xb7f61f3d	-2.9340032e-05
89	0x382f8bdf	4.1853516e-05
90	0xb8081b9b	-3.2450636e-05
91	0xb8338caf	-4.2807947e-05
92	0x3a977448	0.001155504
93	0x3ae60a49	0.0017550673
94	0x39b0fbe8	0.0003375702
95	0x3a2f2bc1	0.000668224
96	0xb9bfbe74	-0.00036572258
97	0xb8a34e11	-7.786987e-05
98	0xb9b6fd03	-0.00034902254
99	0xbaa71718	-0.0012747971
100	0x3937c066	0.00017523914
101	0x3846b89c	4.737881e-05
102	0xb86dfd01	-5.674083e-05
103	0xb94ccd61	-0.00019531466
104	0xb81855a1	-3.6319372e-05
105	0xb804a8bb	-3.1628395e-05
106	0xb81d8885	-3.755886e-05
107	0x38865dff	6.407126e-05
108	0x3b732805	0.003710271
109	0x3a8c7927	0.0010717259
110	0x38b6b683	8.712432e-05
111	0x3a20f835	0.00061405014
112	0xba67bf09	-0.0008840417
113	0x3968d9cd	0.00022206381
114	0xb9aba548	-0.00032738806
115	0xba9ce803	-0.0011971
116	0x38c65bd6	9.4584815e-05
117	0xb66aa72b	-3.4966022e-06
118	0xb8a87909	-8.033409e-05
119	0xb921f5ff	-0.00015445797
120	0xb7e03d3c	-2.6731395e-05
121	0xb8788c7a	-5.9258637e-05
122	0xb7e1049d	-2.6824238e-05
123	0x37e1f307	2.6935259e-05
124	0x3b0041f6	0.0019570566
125	0x3ac5bced	0.0015086211
126	0x3938ed0a	0.00017635911
127	0x3a7e0244	0.00096896687
128	0xbaa8ce4e	-0.0012878866
129	0x3aa8aed2	0.0012869483
130	0xb939e94a	-0.00017729882
131	0xba9224c6	-0.0011149875
132	0xb94a3cc2	-0.00019286855
133	0x38e7fc11	0.000110618894
134	0x38ea8a90	0.00011183799
135	0xb99165ec	-0.00027732493
136	0xb5e974cb	-1.7393844e-06
137	0xb857a3a8	-5.141241e-05
138	0xb782f95b	-1.5613323e-05
139	0x368f8240	4.276895e-06
140	0xb9753253	-0.00023383768
141	0x3b12c07d	0.0022392564
142	0x3941aa4c	0.00018469355
143	0x3a8fe6dc	0.0010978836

exp_avg_sq f4 [16]
0	0x49c71825	1.6309806e+06
1	0x493700e9	749582.56
2	0x4938868b	755816.7
3	0x4987fc3d	1.1139916e+06
4	0x498f5338	1.174119e+06
5	0x4aa4a01e	5.394447e+06
6	0x49a7b3dc	1.3738195e+06
7	0x491b5669	636262.56
8	0x4b0c6086	9.19975e+06
9	0x49acf342	1.4168082e+06
10	0x4a709a83	3.9420488e+06
11	0x499ea54d	1.2996256e+06
12	0x4a5c7ddc	3.612535e+06
13	0x4947b955	818069.3
14	0x49443004	803584.25
15	0x49b320ea	1.4674212e+06

exp_avg f4 [16]
0	0x42aec879	87.39155
1	0xc3d97201	-434.89066
2	0x42c46132	98.189835
3	0x4346d6a5	198.83846
4	0x43c0fce6	385.97577
5	0x439b9262	311.14362
6	0xc449d32e	-807.2997
7	0x4337c609	183.77357
8	0xc324144b	-164.07927
9	0xc419f9ab	-615.90106
10	0x43f127b9	482.31033
11	0x4382c317	261.52414
12	0x43faf7fe	501.93744
13	0x43303e29	176.24281
14	0xc39bae22	-311.3604
15	0x43e066fb	448.80453

exp_avg_sq f4 [6]
0	0x49b95b6c	1.5184455e+06
1	0x495a07b1	893051.06
2	0x4b8360c7	1.7219982e+07
3	0x499a20d9	1.2626191e+06
4	0x4a8e9136	4.671643e+06
5	0x48c1fe1b	397296.84

exp_avg f4 [6]
0	0xc3a7d887	-335.69162
1	0x4328e940	168.91113
2	0xc4aeebbe	-1399.367
3	0xc2f90426	-124.5081
4	0x448d418e	1130.0486
5	0xc28ccee5	-70.40409

exp_avg_sq f4 [16]
0	0x3a0a93a2	0.0005286281
1	0x3a311e06	0.0006756488
2	0x3be001e8	0.0068361647
3	0x3a14a209	0.0005669897
4	0x3b2cd8d3	0.0026374354
5	0x3ba45adf	0.0050157155
6	0x3b5b228e	0.0033437344
7	0x3a88a6d4	0.0010425695
8	0x3a82dd16	0.0009984102
9	0x3b5db256	0.003382822
10	0x3bb49899	0.005511355
11	0x3a0f79b2	0.0005473151
12	0x3a0d3fce	0.0005388231
13	0x39924ef1	0.00027906106
14	0x3af2d8d6	0.0018527757
15	0x3a5fbf19	0.00085352507

exp_avg f4 [16]
0	0x3ab923bc	0.001412503
1	0xba9cf01e	-0.0011973416
2	0xbaff6515	-0.0019485081
3	0xbce17769	-0.02752276
4	0xbbe3ce26	-0.006952065
5	0xbb917a84	-0.004439654
6	0xbaec6732	-0.0018036126
7	0xb906a904	-0.00012842199
8	0x38154d6c	3.5596473e-05
9	0xbaeead62	-0.0018209631
10	0xbb81b39d	-0.003958179
11	0xb92b3e7f	-0.00016331112
12	0x3801d84a	3.095743e-05
13	0x3a8462d1	0.001010025
14	0xbb925c87	-0.0044665965
15	0xbcfe6da7	-0.031058146
